data.pth (torch, 6015 bytes, 6 tensors)

l1.weight f4 [8, 77]
00000000: 782b be3e c99d f63e 0c21 683e 7c5a ee3e
00000010: 7b42 85be c5dd 22be f4dc 8c3e 0fe5 bdbe
00000020: f052 f83e bf1b 073f bd55 6f3e f2eb cc3e
00000030: c3f9 bebe 3eaa 38be daa3 5c3e 303a 463e
00000040: d50a 373e afdf 96be 0f4d 33bd d6d8 b7be
00000050: 769c 823e bfa5 b3bc bb42 bbbe c4ff 95be
00000060: f07a de3e aaf9 dd3e 1edc 8dbe f82c 84be
00000070: d7bd ce3e 32e4 7b3e eeeb 543e d402 81be
00000080: 7cdb b23e 711b 7b3d db57 863e 282d 56be
00000090: 7008 a73e fc55 54bd 85c9 9a3e be29 b43e
000000a0: 3ecb ac3e c01e 9dbe 8617 543e a38b d13e
000000b0: 6df5 0d3e 35f6 3a3e 644d 32be e6c4 4a3e
000000c0: a5ac 863e 5cb3 8e3e fc65 963e d46f bebe
000000d0: 17a0 ac3e bf6f 33be d035 823e ed98 023f
000000e0: 8b57 9a3e 5252 de3e 0850 3ebe 8d03 12be
000000f0: 8244 ee3e e12b 813e e407 703f 289c 0c3f
00000100: e8b5 ab3e cb21 353e ccee e63d 0dc3 7ebd
00000110: 4835 da3e c8a4 af3e 0e75 d43e 6e93 4e3e
00000120: 6cd7 be3e 5cf1 15be 68ef f33d e648 e63d
00000130: 142c 573e 1cf1 ec3e 16ac ae3d 4c23 9a3e
00000140: d6d8 34be 8700 c7bd 376f 3cbe 92ea 12bd
00000150: 5b6b 943e b83b c53e 5009 b4be 1236 043f
00000160: 2659 41be 8d3d 0a3f 221e 2abe fe9c febc
00000170: aca9 8ebe 6487 29be d3aa ca3e b2d1 7abe
00000180: ebc3 a43e 5d3d 6abd 8b76 913e e34e 163e
00000190: 4677 d2be 2c3f cc3e bd00 1abe 4f7b d2be
000001a0: bc04 d1be 779d 19be 528f 06bf 2fe5 973e
000001b0: edc9 d13d 4d2e aabd 1b8c 04be 7be6 e9bd
000001c0: 8566 ad3e 8687 b9bd d97d 743e de17 a93e
000001d0: a2db 49be 093c c0bd 46a3 0d3e c32e 993e
000001e0: 8c1e 03bd 7c4a c43e c503 57bd fab2 c63e
000001f0: 2d19 06be e736 9cbc 7737 973e 910f a23c
00000200: ffb2 763e d941 9dbe ab47 993e f131 153e
00000210: 6203 aebe b732 6a3e 28a9 e5bd c4ce 163d
00000220: 173e 7a3e 5f6f 8ebe b520 993e fa21 343f
00000230: 50a2 be3e d2f8 973e 9ba8 9fbc 0ce8 3cbe
00000240: 914e 973d 24a0 9f3e 94eb b5bc 1236 3abc
00000250: 4c1f 083f b13e f13e 45f2 c13e c5b1 3ebe
00000260: 80d2 983e 4577 853e 5032 d63e d691 9e3e
00000270: fa2b 49be 42ad 9cbe 2d85 1b3e b076 5bbe
00000280: aed0 ad3d 729d 1a3f 591b 503e d5e9 983e
00000290: 3794 12be c981 77be 892b 70be e82d 243e
000002a0: 0ff5 93bd c287 eabd 8076 32be a3e6 0b3e
000002b0: 9292 cf3d db32 1b3f 9663 723e d359 573d
000002c0: a739 cf3d 6056 f53b 1f8e 933e 148d 123e
000002d0: 20a5 50bd 52dc 343d 40e1 403e 7350 d03d
000002e0: 5a93 bdbb f8a9 a33b cd1e d43d bc92 c93d
000002f0: 8017 443e 0927 cb3c 3056 613e 9c6f 263e
00000300: d379 dabd a417 cabd 42f3 563e 347a c33e
00000310: 38a9 2a3e 53d3 58be e78e f3bd a1d4 b9bc
00000320: 1817 fb3d 89e6 b93c b7f4 83be 08af 78bd
00000330: 665e 943b f274 70bd d76d 56be d43a ce3d
00000340: bf06 923e dc02 85bd 399e 2dbe cc9a 213e
00000350: 239b f73e adea cabc 5e5b 0f3e 0069 abbd
00000360: 041d 0b3f 8b15 503e 78a3 fdbd f254 7d3e
00000370: 73a8 6bbc 107f b53d bcd7 86be 5607 3f3e
00000380: 3ea5 393e cac2 b7be 24dc b5be 32eb ac3d
00000390: bc70 dfbd 2ca8 043f fd63 2abe a40a 64be
000003a0: 8b82 8abe 0b7c cdbe dee8 853e 1750 583e
000003b0: 0219 193f d205 0e3e dc23 dcbe 654f dcbe
000003c0: f9e8 adbd 7a90 3b3e f24c be3e 61a1 103f
000003d0: 5f42 ad3e eb65 db3e 45da 2f3e 63af 8b3e
000003e0: 0cf7 b63e 7d67 ca3e a520 dcbe 7fa2 43be
000003f0: 5a6f e23e 3b6d c13e 7a34 423f 81bf 6dbe
0.3714254 0.48167256 0.22668856 0.4655341 -0.26027283 -0.15904911 0.27512324 -0.3708882
0.48500776 0.5277671 0.2337255 0.40023762 -0.37299928 -0.18033692 0.2154688 0.19358134
0.17875226 -0.29467532 -0.04377466 -0.3590762 0.25509995 -0.02192962 -0.3657435 -0.29296696
0.4345317 0.4335454 -0.27707 -0.25815558 0.4037921 0.24598768 0.20793125 -0.2519747
0.34933078 0.061305467 0.26238903 -0.20915663 0.32623625 -0.051839814 0.30231872 0.35188097
0.3374881 -0.30687523 0.20712098 0.40926847 0.13863154 0.18257983 -0.17412335 0.19801673
0.26303592 0.27871215 0.29374683 -0.37194693 0.3371589 -0.17523097 0.2543168 0.51014596
0.30144915 0.4342218 -0.18585217 -0.14259167 0.46536642 0.2522879 0.9376204 0.54925776
0.3353722 0.17688672 0.11276016 -0.062197734 0.42618775 0.34305406 0.41495556 0.20173427
0.3727373 -0.14642853 0.119108975 0.11244373 0.21012908 0.46277702 0.085289165 0.30105054
-0.17660841 -0.097168975 -0.184018 -0.035868235 0.28988156 0.38522124 -0.35163355 0.51645005
-0.18881664 0.5400017 -0.16613057 -0.03108072 -0.27863824 -0.16555554 0.39583454 -0.24494055
0.32180724 -0.057187427 0.28410754 0.1467853 -0.41106623 0.39891946 -0.15039344 -0.41109702
-0.40823925 -0.15001474 -0.5256244 0.2966704 0.102435924 -0.083096124 -0.12944071 -0.11420914
0.3386728 -0.09059052 0.23876132 0.33026022 -0.1971269 -0.09386451 0.13831815 0.2991849
-0.032011554 0.38338077 -0.05249383 0.38808423 -0.13095541 -0.019069148 0.29534504 0.019782813
0.24091719 -0.307143 0.2993749 0.14569832 -0.33986956 0.22870909 -0.112139046 0.03681828
0.24437748 -0.27819344 0.29907766 0.70364344 0.3723321 0.29682022 -0.019489577 -0.18447894
0.07388032 0.31176865 -0.022207059 -0.01136543 0.53172755 0.47118142 0.3788015 -0.18622501
0.298481 0.26067558 0.4183526 0.3097064 -0.19645682 -0.30600935 0.15187521 -0.21431994
0.08487068 0.6039649 0.20322932 0.298659 -0.14314352 -0.24170603 -0.23454107 0.16033137
-0.072244756 -0.11451675 -0.17428017 0.136622 0.10135378 0.60624474 0.23670802 0.052575897
0.10118418 0.0074871033 0.28819367 0.1431163 -0.050938725 0.044155426 0.18835926 0.101715945
-0.005785388 0.004994627 0.10357437 0.098424405 0.1914959 0.024798887 0.22005534 0.16253513
-0.106677674 -0.0986779 0.20991233 0.3817917 0.16666114 -0.21174364 -0.11892491 -0.022684397
0.12260264 0.022692936 -0.2577264 -0.060713798 0.0045278547 -0.058705278 -0.20940338 0.10069814
0.28520772 -0.06494686 -0.16954888 0.15781707 0.48360547 -0.024770105 0.13999698 -0.083696365
0.5434115 0.20320718 -0.12384695 0.24739435 -0.014383423 0.08862126 -0.26336467 0.18655142
0.18129441 -0.358908 -0.35519516 0.084432974 -0.10910174 0.5181911 -0.16639705 -0.22269684
-0.2705272 -0.401337 0.26154226 0.21124302 0.59803784 0.13869408 -0.4299611 -0.43029323
-0.08491702 0.18316832 0.3716808 0.56496245 0.338397 0.42851195 0.17173107 0.27282247
0.35735357 0.3953208 -0.42993656 -0.19104956 0.4422558 0.3777865 0.7586132 -0.23217584

l1.bias f4 [8]
00000000: bfb3 c23e cf76 d23e 6dbe 6a3f d821 dc3e
00000010: 68eb 893e e1ee 493e 527a 1d3f 902a 073f
0.3802776 0.4110627 0.91696817 0.4299457 0.26937413 0.19720031 0.6151477 0.5279932

l2.weight f4 [8, 8]
00000000: af15 813f c0b9 8e3f 47a7 25bd 2cf0 34bf
00000010: 1d70 813f 3fd4 5ebf 1e01 52bf d4df c13e
00000020: b1fa e63d 6a7d 7cbf fccf 8ebd f653 243f
00000030: f54c 5fbf 11ec 88be fd8c d13e cc0f 6e3f
00000040: 6ad6 6a3f 1cdf 5bbe ab10 2e3f 3e63 6f3e
00000050: 3bc9 eabd ae32 803d 65d5 3dbf 9456 8fbd
00000060: 8994 6cbf 4cc2 7abd 3b83 733f aaca 123f
00000070: b1c3 ccbd bcc1 ddbe d9de 9a3f 4020 0b3f
00000080: d168 c23d 611e 1d3f 8b3f 37bf 6bc1 4f3f
00000090: 88e1 543f 04cd 1b3f 6b20 563f 1530 293f
000000a0: 1f3f 2fbe bd10 5ebe f9fc a53f e4a7 3ebe
000000b0: 0e3d 3bbf 9a5f 29be 3bd5 193f ae77 0e3e
000000c0: 357e 4a3f cb08 d1be 2cf0 a0bd 5756 87bd
000000d0: 6281 1abf 5497 6b3f e029 2dbb 4868 5f3f
000000e0: d12f 0d3f 0bb0 963f de4b a63f 221d 83bf
000000f0: 4b0b 3a3e c92e 6c3f 5be0 5e3d 886e 4dbf
1.0084742 1.1150436 -0.04044273 -0.70678973 1.0112339 -0.8704261 -0.82032955 0.3786608
0.11278284 -0.98628867 -0.069732636 0.64190614 -0.872268 -0.26742604 0.40927878 0.92992854
0.9173342 -0.21471828 0.67994183 0.23377702 -0.11464163 0.062596664 -0.7415374 -0.06998935
-0.92414147 -0.061220452 0.95122117 0.5734049 -0.09998263 -0.4331187 1.2099258 0.54346085
0.094926484 0.6137448 -0.71581334 0.8115451 0.83156633 0.60859704 0.83643216 0.6608899
-0.17113923 -0.21686073 1.2967826 -0.18618733 -0.7314004 -0.16540375 0.6009099 0.13912842
0.79098827 -0.4082702 -0.07858309 -0.06608265 -0.6035367 0.92027783 -0.0026422665 0.87268496
0.5515109 1.1772474 1.2991903 -1.0243266 0.1816837 0.9225889 0.05441318 -0.8024678

l2.bias f4 [8]
00000000: f625 fd3e 7a90 f73e 97d5 f5bd 71f5 583f
00000010: 490e 89be f7b8 2d3f 0fb2 a03d 882d 303f
0.49443024 0.48352414 -0.1200363 0.84749514 -0.2676871 0.6786036 0.07846462 0.68819475

l3.weight f4 [7, 8]
00000000: 0b6b babe 037e ccbe 7cdf 023f 23ed 57bf
00000010: 6aad 3bbf f9a7 e93a 6901 333f 31e7 963e
00000020: ec4f 86bf 96b4 93bf db3e 72bf 07a8 ed3e
00000030: 2b3e 87bf 60ee 6c3f 3b58 71bf 225b 5f3f
00000040: e2cf f1bd dd37 863f 73ef 7dbf e06b 453f
00000050: 4be9 17bf eafd 303f 7bcd 9dbd 4fa4 87bf
00000060: ec6f 05be b272 1dbf 1bc3 8fbe fd1f c63e
00000070: fe28 3e3f ca0c 56bf 272e 99bf b226 1dbf
00000080: a450 123f 9b95 9cbe 822d 4dbf 0bb9 8abf
00000090: bbdf bc3e 06d0 b5be 75c7 ffbb 3305 81bd
000000a0: 97c3 e3be 7bcd 193f dd73 eb3d c997 48bf
000000b0: bbb2 8c3e e654 22bf 00ad 043f a2b7 2abf
000000c0: 9e50 643f efc9 16bf 04ba 0b3f 4d8f 13bf
000000d0: 6d97 89bf 5790 563e e759 a8bf 13ed 323f
-0.36409792 -0.3993989 0.5112226 -0.84346217 -0.73311484 0.0017826549 0.69924027 0.2947326
-1.049314 -1.1539485 -0.9462716 0.46417257 -1.0565847 0.9255123 -0.94275254 0.8724843
-0.118072286 1.0485798 -0.99193496 0.7711773 -0.5934035 0.6913744 -0.07705208 -1.0597018
-0.13030976 -0.61503136 -0.2807854 0.3869628 0.742813 -0.83613265 -1.196721 -0.6138717
0.571543 -0.3058289 -0.80147564 -1.0837721 0.36889443 -0.35510272 -0.0078057596 -0.0629982
-0.4448516 0.60079163 0.114967085 -0.78356606 0.2748011 -0.63410795 0.5182648 -0.6668645
0.8918551 -0.58901876 0.5458071 -0.57640535 -1.0749336 0.20953499 -1.3152436 0.69892997

l3.bias f4 [7]
00000000: 2e9f aabc aacc c23e ab8b dcbb df19 4dbe
00000010: bfbf 35bd 5761 c4be 99c7 26be
-0.020827856 0.3804677 -0.006730517 -0.200294 -0.044372316 -0.38355514 -0.16287078
